models/saved_models/fast-scnn.pth (torch, 180615 bytes, 20 tensors)

lds.0.weight f4 [32, 3, 3, 3]
0.19890931 0.048521873 -0.09267793 0.06075402 -0.15540133 0.065329894 -0.036668662 -0.10810628
0.17666626 0.038923144 0.15856685 -0.14834045 -0.17280881 -0.029483888 0.015334222 -0.16602376
0.12971407 0.07048609 0.07071765 -0.26811212 -0.1427556 -0.10742975 -0.29212558 -0.13804242
-0.25159335 0.015108743 -0.004738215 -0.18339086 -0.025392158 -0.11914032 0.054575346 -0.027355831
0.19043374 -0.035312112 0.14017978 -0.16458704 -0.08019297 0.008841284 0.014618948 -0.032724403
0.11402514 -0.063963175 -0.038151946 0.052990165 0.16581464 -0.03516178 -0.05035009 -0.06186993
-0.07539416 -0.13335767 0.18093476 -0.29209298 -0.21859783 -0.23001216 -0.14431302 0.1793922
-0.12001888 0.18532312 0.19343197 0.111192614 0.15971956 -0.12825863 0.19320226 -0.11176667
-0.10138009 -0.04597541 -0.07789675 -0.19122793 -0.12857497 -0.1745566 0.09024246 -0.16388986
0.08583578 0.020525394 -0.052428 0.19448815 -0.12438068 -0.043088008 -0.06474433 0.044833437
0.21208842 -0.13151425 -0.07411786 0.0144821275 -0.008015587 -0.13921535 -0.15397853 0.045411114
-0.16819368 -0.015089091 -0.17371595 -0.15294021 -0.013033193 -0.038954135 0.06117838 -0.13715234
0.14719538 -0.1284827 0.17789398 0.14493352 0.02289028 0.14748499 -0.10788743 0.061115753
0.21598084 0.20207842 0.13927631 -0.10704151 -0.043400154 0.10760836 -0.112959735 0.021631055
0.14340638 0.1451998 0.17546314 -0.08441568 0.13622856 -0.01706454 0.09313598 0.0071265805
0.053584363 -0.1805325 0.07179045 -0.011870103 -0.0928883 -0.13298912 0.023394983 -0.05858996
-0.20935078 -0.049382385 -0.23611042 -0.22179852 0.13453184 0.14000942 -0.026011797 -0.18507601
-0.16920227 0.082643956 -0.22280571 0.13526909 -0.1367799 -0.2103152 -0.15454355 -0.007987395
-0.015249914 0.078514814 0.020829951 -0.11848374 0.16441871 -0.17162554 0.027602581 -0.15616982
-0.07638645 0.11386025 0.1758991 0.15535629 -0.009000897 0.05557961 -0.14079662 0.16881122
-0.037485965 0.089204915 -0.060793873 0.1498348 -0.18634717 -0.18092117 0.082642764 -0.10936385
-0.008174364 -0.056153666 0.0036361527 0.08739076 -0.08779092 0.14869677 -0.18215454 0.046750557
-0.043617096 0.20195144 -0.01905705 -0.029579686 0.16153987 0.18628402 -0.1294857 0.1354177
0.05153273 0.08583978 0.10657283 -0.04753016 -0.19666176 0.20978744 0.17252506 0.057634313
0.031008871 -0.11298926 -0.056318346 0.0335033 0.15958932 -0.16309217 -0.09161169 -0.07941748
-0.005400125 -0.14958538 -0.04006165 -0.0077578947 -0.11086456 0.0076277363 0.029388634 0.14139758
-0.073003344 0.110693716 -0.082209 -0.00049505197 0.00720381 0.03884172 0.11529714 -0.12303403
-0.10425185 0.020122148 -0.16086635 -0.12426454 -0.088575274 0.0062012635 0.17175488 0.19049881
0.0057556494 -0.17215705 -0.17295408 0.056243833 0.15636738 0.18180454 -0.10459204 -0.14104806
0.19512412 -0.032739684 -0.16376664 -0.058449876 -0.12192443 -0.04729766 -0.04208643 0.16850233
-0.09970518 0.17201996 0.0010350441 0.014953131 -0.21994855 0.013986693 0.10371147 -0.26163557
-0.18453334 -0.0956925 -0.011556356 -0.032558784 0.20562187 0.13131653 -0.106560946 0.017108575
00000000: e2ae 4b3e dfbe 463d edcd bdbd 35d9 783d
00000010: 8721 1fbe aecb 853d e131 16bd d366 ddbd
00000020: 00e8 343e e06d 1f3d 595f 223e 8fe6 17be
00000030: cbf4 30be 3288 f1bc 633c 7b3c 2202 2abe
00000040: c4d3 043e 035b 903d 6ad4 903d fe45 89be
00000050: 862e 12be 2104 dcbd 7c91 95be fe5a 0dbe
00000060: d8d0 80be a98a 773c 0743 9bbb d0ca 3bbe
00000070: 3703 d0bc d7ff f3bd 668a 5f3d 5619 e0bc
00000080: 1001 433e 6fa3 10bd 4a8b 0f3e 8189 28be
00000090: 363c a4bd 08db 103c 5084 6f3c 060a 06bd
000000a0: 0386 e93d 20ff 82bd 3745 1cbd 370c 593d
000000b0: 50cb 293e cc05 10bd e53b 4ebd 536b 7dbd
000000c0: 4168 9abd ea8e 08be f646 393e 368d 95be
000000d0: 1cd8 5fbe 4f88 6bbe cbc6 13be 97b2 373e
000000e0: 75cc f5bd 58c5 3d3e 0813 463e f4b8 e33d
000000f0: 868d 233e 3b56 03be d0d6 453e ede5 e4bd
00000100: 5da0 cfbd b650 3cbd 5588 9fbd 41d1 43be
00000110: 28a9 03be f7be 32be 0ad1 b83d bed2 27be
00000120: abca af3d df24 a83c bebe 56bd e727 473e
00000130: 4cbb febd 0d7d 30bd ad98 84bd 44a3 373d
00000140: b52d 593e acab 06be 1bcb 97bd 7246 6d3c
00000150: cf53 03bc 788e 0ebe 8cac 1dbe 0101 3a3d
00000160: f73a 2cbe 3c38 77bc 98e2 31be 5c9c 1cbe
00000170: 2c89 55bc 5f8e 1fbd 2e96 7a3d aa71 0cbe
00000180: 63ba 163e f890 03be d729 363e 7469 143e
00000190: 6584 bb3c 4e06 173e 16f4 dcbd 8354 7a3d
000001a0: 152a 5d3e a5ed 4e3e 739e 0e3e 9438 dbbd
000001b0: 5cc4 31bd c661 dc3d 6f57 e7bd 9c33 b13c
000001c0: 1fd9 123e 42af 143e 9cac 333e 21e2 acbd
000001d0: 807f 0b3e efca 8bbc 14be be3d 1786 e93b
000001e0: 477b 5b3d 83dd 38be df06 933d d27a 42bc
000001f0: 393c bebd 4d2e 08be d6a6 bf3c 07fc 6fbd
00000200: 0d60 56be 2f45 4abd eec6 71be 271f 63be
00000210: b7c2 093e a15e 0f3e b116 d5bc 9184 3dbe
00000220: 5c43 2dbe 3c41 a93d 2e27 64be fb83 0a3e
00000230: 0810 0cbe de5c 57be aa40 1ebe 90dd 02bc
00000240: c6da 79bc 60cc a03d 93a3 aa3c 9aa7 f2bd
00000250: 615d 283e 9bbe 2fbe cf1e e23c fbea 1fbe
00000260: 8070 9cbd 902f e93d e51e 343e b815 1f3e
00000270: 8078 13bc 72a7 633d fd2c 10be d9dc 2c3e
00000280: e28a 19bd 11b1 b63d ff02 79bd 4b6e 193e
00000290: cbd1 3ebe 6643 39be 9c40 a93d 27fa dfbd
000002a0: c5ed 05bc 6301 66bd 854c 6e3b edf9 b23d
000002b0: bacb b3bd f743 183e b886 3abe 837d 3f3d
000002c0: d7a7 32bd 5ccc 4e3e 881d 9cbc 1951 f2bc
000002d0: b56a 253e 3dc1 3e3e e697 04be f0aa 0a3e
000002e0: fc13 533d c4cc af3d db42 da3d fcae 42bd
000002f0: b361 49be 85d2 563e 69aa 303e f511 6c3d
00000300: 5106 fe3c ea66 e7bd 11ae 66bd c23a 093d
00000310: 626b 233e a201 27be e99e bbbd a2a5 a2bd
00000320: 88f3 b0bb e92c 19be af17 24bd f035 febb
00000330: f50c e3bd 17f2 f93b 6fc0 f03c 87ca 103e
00000340: c782 95bd 63b3 e23d 315d a8bd 60c6 01ba
00000350: f00d ec3b 7f18 1f3d e820 ec3d 44f9 fbbd
00000360: fe81 d5bd 34d7 a43c 26ba 24be 687e febd
00000370: f466 b5bd f833 cb3b 83e0 2f3e 1f12 433e
00000380: e399 bc3b f049 30be e01a 31be ef5f 663d
00000390: c51e 203e f82a 3a3e 5a34 d6bd e76e 10be
000003a0: 9ece 473e 0c1a 06bd 71b2 27be 2369 6fbd
000003b0: 84b3 f9bd 31bb 41bd d262 2cbd e08b 2c3e
000003c0: 3b32 ccbd 0026 303e 51aa 873a fafd 743c
000003d0: 313a 61be 7128 653c ae66 d43d 19f5 85be
000003e0: 4ff6 3cbe 6efa c3bd df56 3dbc 5c5c 05bd
000003f0: 8a8e 523e d777 063e a03c dabd 4827 8c3c

lds.0.bias f4 [32]
0.13100651 0.12409762 0.16006383 -0.016356152 0.019492647 0.021371461 0.14019147 -0.021556271
0.1438107 0.08727313 0.013235146 -0.0542518 -0.103619576 0.052551113 0.119655 -0.08337557
-0.0053065647 0.041219074 0.114258304 -0.091760755 -0.13289441 -0.016318837 0.05805584 -0.14250381
0.10669877 0.12864223 0.2108093 0.17574276 0.037097547 -0.10936555 0.063919745 0.227687
00000000: 9226 063e e526 fe3d c6e7 233e 56fd 85bc
00000010: 0baf 9f3c 3413 af3c 5a8e 0f3e c796 b0bc
00000020: 1d43 133e 41bc b23d 3ad8 583c 2337 5ebd
00000030: 8036 d4bd d63f 573d ae0d f53d d0c0 aabd
00000040: b1e2 adbb 55d5 283d 4200 ea3d 10ed bbbd
00000050: 7915 08be 15af 85bc f6cb 6d3d 85ec 11be
00000060: e284 da3d caba 033e 65de 573e e9f5 333e
00000070: 99f3 173d 0cfb dfbd 5be8 823d c826 693e

lds.1.weight f4 [32]
0.96071607 0.93390167 1.1667022 1.0361876 1.0699205 0.95411104 1.0093933 0.9801371
0.9650786 0.99956405 1.0556368 1.0417261 1.0248798 0.9288917 0.99609226 0.97150975
0.9243545 1.1338545 0.99802935 1.0016996 0.9430524 1.000523 0.85546005 0.997263
0.9592958 0.98148876 0.9452695 0.91853714 0.9637751 1.0693024 1.0285556 0.9777145
00000000: 7df1 753f 2e14 6f3f 7f56 953f cca1 843f
00000010: 28f3 883f 9f40 743f cd33 813f 44ea 7a3f
00000020: 640f 773f 6ee3 7f3f 1b1f 873f 4857 853f
00000030: 432f 833f d9cb 6d3f e7ff 7e3f ddb4 783f
00000040: 7fa2 6c3f 2522 913f da7e 7f3f b137 803f
00000050: e26b 713f 2311 803f 6eff 5a3f a14c 7f3f
00000060: 6994 753f d942 7b3f 2ffd 713f 4025 6b3f
00000070: f7b9 763f e7de 883f b6a7 833f 7f4b 7a3f

lds.1.bias f4 [32]
-0.031061137 -0.07512791 0.1465852 0.050761018 0.014906631 -0.035985507 0.02286793 -0.06321167
-0.054247558 -0.009094708 0.022153586 -0.012890267 0.036392212 -0.11592033 -0.0093680285 -0.032497525
-0.15744548 -0.06544786 -0.017541498 -0.01473132 -0.101756185 -0.10538016 -0.09015728 -0.07257913
-0.06548548 0.0002589614 -0.123301044 -0.1924012 0.074548535 -0.12961379 0.0040042046 -0.07603053
00000000: ed73 febc a9dc 99bd 6e1a 163e c9ea 4f3d
00000010: f13a 743c 8a65 13bd 8655 bb3c 1f75 81bd
00000020: b032 5ebd f801 15bc 707b b53c b331 53bc
00000030: 0010 153d a367 edbd 5c7c 19bc 201c 05bd
00000040: 6339 21be 8709 86bd 30b3 8fbc a25b 71bc
00000050: 8c65 d0bd 8ed1 d7bd 61a4 b8bd 5ea4 94bd
00000060: 401d 86bd 36c5 8739 4285 fcbd d204 45be
00000070: e7ac 983d 7ab9 04be b435 833b e5b5 9bbd

lds.1.running_mean f4 [32]
0.2690901 0.33215657 0.061684318 0.30161932 -0.1088495 0.49437174 0.24448746 -0.08551238
0.2337606 0.5230122 -0.11195173 -0.18112999 0.019655675 -0.19002509 0.036353603 -0.115391225
-0.32177898 0.030821001 0.1425268 -0.11598327 -0.11939125 -0.126435 -0.05380355 -0.18990873
0.11112521 0.2380047 0.21155545 -0.24378957 0.048893694 -0.14915986 0.10900508 0.41299158
00000000: 2dc6 893e 6d10 aa3e b2a8 7c3d d96d 9a3e
00000010: 7dec debd 4b1e fd3e ec5a 7a3e 1d21 afbd
00000020: f05e 6f3e 21e4 053f f346 e5bd 247a 39be
00000030: f004 a13c f095 42be 84e7 143d 3c52 ecbd
00000040: 37c0 a4be 537c fc3c 8cf2 113e a388 edbd
00000050: 6683 f4bd 2d78 01be 1c61 5cbd 6f77 42be
00000060: 9d95 e33d 81b7 733e fea1 583e f9a3 79be
00000070: c144 483d 5dbd 18be 0e3e df3d a273 d33e

lds.1.running_var f4 [32]
2.27975 1.5861717 0.05744913 0.15882832 0.23152192 0.44869137 0.11447572 0.0249801
0.24377963 0.7262613 0.16613227 0.13429616 0.14541456 1.5144081 0.068365395 0.0994155
1.3658842 0.08139671 0.775846 0.10772858 0.49327415 0.101552725 0.28959492 0.07052787
0.16358158 0.06885563 0.114682086 2.7055004 0.44690523 0.051520273 0.05643824 1.4099444
00000000: 6de7 1140 ad07 cb3f c74f 6b3d e4a3 223e
00000010: 1514 6d3e e0ba e53e 3f72 ea3d 11a3 cc3c
00000020: 5ea1 793e 43ec 393f 941e 2a3e ef84 093e
00000030: 8ee7 143e 20d8 c13f 2803 8c3d 5b9a cb3d
00000040: 4bd5 ae3f 51b3 a63d d89d 463f cda0 dc3d
00000050: 6e8e fc3e e0fa cf3d c945 943e ea70 903d
00000060: ee81 273e 2e04 8d3d 71de ea3d eb26 2d40
00000070: c3d0 e43e ec06 533d c92b 673d 0f79 b43f

lds.3.weight f4 [48, 32, 3, 3]
-0.017670687 0.022002263 -0.044372506 -0.057317983 0.03052322 0.0520962 0.0022430245 0.015158542
0.038336825 0.029846596 -0.014476157 0.052543998 -0.017167857 -0.034684513 -0.041341215 0.0199961
-0.053877775 -0.0135142505 -0.016882751 -0.043172054 0.034423705 -0.012200066 -0.031144656 0.032944158
0.003509809 -0.05357259 -0.0711997 -0.034084976 -0.027795894 -0.07400296 -0.0005767516 -0.033724595
-0.029597562 0.03132547 -0.07864542 -0.0479259 -0.04269033 0.013864295 0.062176913 0.041164923
-0.00066109956 0.057870183 0.030978423 -0.014570064 -0.02357315 -0.07322383 -0.008237474 -0.015027928
-0.06520278 -0.105277024 -0.08470493 -0.016465975 -0.10453266 -0.02426334 0.018958194 -0.0043191486
-0.052941423 0.027102508 -0.047218252 -0.014744817 0.036116026 0.06188305 0.01585946 -0.025219252
-0.048491906 -0.016531898 -0.034846883 0.04882649 0.001624717 0.013988452 -0.060123052 0.012314577
0.011723119 -0.0003428374 0.075905554 -0.016026853 0.03728606 0.020681417 -0.037461195 0.010701671
-0.018105397 0.0032702202 0.029079916 0.06340717 0.0403223 0.06547991 0.040871166 0.053625282
-0.0075871176 0.08628191 0.02978517 0.032731485 0.004377069 -0.009485801 0.010906603 0.02607845
0.026549833 0.0034411664 0.05744738 -0.041668057 -0.044186547 0.04439035 0.036472686 -0.011919974
0.066479325 0.032164447 0.045441367 0.017241878 0.02263463 0.048935305 -0.0028266935 0.031217648
0.033933766 0.017406374 0.058126196 0.005857374 -0.011758557 0.04423671 0.032800045 -0.020556038
0.00430689 0.038056727 0.0951366 0.05961822 0.08847353 -0.0098557 -0.029031012 0.025256336
0.014803228 0.042073917 -0.012767302 0.014867334 0.028478429 -0.06572111 -0.035857003 -0.028807256
-0.05829206 -0.00030540966 0.042834263 -0.03569902 0.061493315 0.034330994 0.034994073 0.05475888
0.10303882 0.01664632 0.019751282 0.104816824 0.10003298 0.10238908 0.09067955 -9.212061e-05
0.043888524 -0.09456991 -0.06998112 -0.08124961 -0.080393426 0.018647332 -0.0210415 0.023708628
0.00051240774 -0.11323851 0.030753221 -0.008509537 0.051593903 0.02914771 -0.044602178 0.008199062
-0.03949032 -0.0550502 0.04635528 -0.00804586 0.038054775 -0.028657023 -0.012084632 0.035876885
-0.01735213 0.03417831 -0.02969765 -0.006425133 -0.064213075 0.03212388 -0.05300446 -0.013164594
0.011131105 0.053667046 -0.05621197 -0.027380437 0.05479931 -0.046256684 0.030307079 -0.02338839
-0.0002154405 0.019959275 0.035536855 0.03506642 -0.025378551 0.05414596 0.072351605 -0.043363415
-0.048625097 -0.001392963 0.00875768 0.044114124 -0.016918994 0.012096963 0.0005000361 0.041082244
-0.027107503 0.08292256 0.04356045 0.034481924 0.0016233909 0.0042914664 0.015334087 0.061670735
0.028764537 0.00030819786 0.029627196 0.059087135 0.022218583 -0.03910664 0.078848094 0.03370377
-0.049939957 0.011259617 -0.007502878 -0.054342505 0.070584506 -0.012887173 -0.044455126 0.032041572
0.0456061 -0.033069957 0.045766007 -0.041840896 0.025316788 -0.0015326771 0.05589017 -0.0015622019
0.019352326 0.05150315 0.002173264 0.02161048 0.07369709 0.032977443 0.0368934 0.09290898
0.0675307 0.077118315 0.101883024 0.034176018 -0.039376304 0.006350287 0.041457325 0.037715092
00000000: 1ec2 90bc 173e b43c f2bf 35bd 43c6 6abd
00000010: d50b fa3c d362 553d b5ff 123b 895b 783c
00000020: 1307 1d3d d980 f43c 672d 6dbc 6038 573d
00000030: 9ba3 8cbc 5911 0ebd 6855 29bd dcce a33c
00000040: f1ae 5cbd e06a 5dbc b24d 8abc 2ed5 30bd
00000050: dfff 0c3d c9e2 47bc 1423 ffbc 74f0 063d
00000060: d304 663b ef6e 5bbd 26d1 91bd b09c 0bbd
00000070: 37b4 e3bc dd8e 97bd 2531 17ba cd22 0abd
00000080: 9676 f2bc 234f 003d da10 a1bd f34d 44bd
00000090: 0edc 2ebd 1127 633c 38ad 7e3d 8d9c 283d
000000a0: a44d 2dba 4909 6d3d 76c6 fd3c 47b7 6ebc
000000b0: 7b1c c1bc 60f6 95bd 78f6 06bc b337 76bc
000000c0: 0989 85bd 7b9b d7bd c779 adbd a7e3 86bc
000000d0: 3815 d6bd e9c3 c6bc 374e 9b3c a587 8dbb
000000e0: 1bd9 58bd 1406 de3c ed67 41bd 3f94 71bc
000000f0: 66ee 133d 1579 7d3d b3eb 813c 9b98 cebc
00000100: 739f 46bd e76d 87bc 9bbb 0ebd 49fe 473d
00000110: 75f4 d43a d22f 653c 9743 76bd 14c3 493c
00000120: 5312 403c dbbe b3b9 5f74 9b3d bf4a 83bc
00000130: 45b9 183d 136c a93c e970 19bd 1056 2f3c
00000140: c551 94bc 3151 563b 0139 ee3c 9edb 813d
00000150: ff28 253d 551a 863d 8668 273d 2fa6 5b3d
00000160: 5b9d f8bb 92b4 b03d 0700 f43c 7311 063d
00000170: 846d 8f3b 556a 1bbc 9cb1 323c 79a2 d53c
00000180: 097f d93c 3185 613b f24d 6b3d 20ac 2abd
00000190: f4fc 34bd a8d2 353d 6264 153d ff4b 43bc
000001a0: 5026 883d debe 033d ba20 3a3d d73e 8d3c
000001b0: 426c b93c 6370 483d 0c40 39bb 27bc ff3c
000001c0: 22fe 0a3d d097 8e3c bc15 6e3d 37ef bf3b
000001d0: f6a6 40bc 8d31 353d 5759 063d 2365 a8bc
000001e0: d020 8d3b 5fe1 1b3d fad6 c23d 3c32 743d
000001f0: 9c31 b53d cd79 21bc 72d2 edbc 60e6 ce3c
00000200: 3d89 723c b355 2c3d f22d 51bc 1e96 733c
00000210: 984b e93c ca98 86bd cbde 12bd 32fd ebbc
00000220: a8c3 6ebd 641f a0b9 fb72 2f3d 2339 12bd
00000230: 6ae0 7b3d a89e 0c3d f255 0f3d d94a 603d
00000240: 0406 d33d dd5d 883c 71cd a13c 34aa d63d
00000250: 17de cc3d 5eb1 d13d 33b6 b93d e030 c1b8
00000260: 74c4 333d dead c1bd 4352 8fbd 3266 a6bd
00000270: 4fa5 a4bd 4ac2 983c 395f acbc 9938 c23c
00000280: 1a53 063a 98e9 e7bd 2eee fb3c 966b 0bbc
00000290: 2154 533d 2ec7 ee3c c6b0 36bd 5c55 063c
000002a0: 9ac0 21bd 527c 61bd 09df 3d3d c8d2 03bc
000002b0: 53df 1b3d 22c2 eabc 9ffe 45bc a4f3 123d
000002c0: 0e26 8ebc 8efe 0b3d 7c48 f3bc ec89 d2bb
000002d0: 2582 83bd 5494 033d 341b 59bd 4fb0 57bc
000002e0: 3d5f 363c fad1 5b3d 863e 66bd f04c e0bc
000002f0: 3e75 603d a677 3dbd 8d46 f83c 0299 bfbc
00000300: dee7 61b9 a281 a33c 188f 113d cea1 0f3d
00000310: aee6 cfbc 27c8 5d3d 142d 943d d69d 31bd
00000320: 1c2b 47bd 1594 b6ba 5f7c 0f3c 03b1 343d
00000330: b499 8abc 5732 463c db14 033a db45 283d
00000340: 8e10 debc 4ed3 a93d 716c 323d eb3c 0d3d
00000350: f6c7 d43a 6e9f 8c3b d33b 7b3c 749a 7c3d
00000360: 9ba3 eb3c 9e95 a139 bcb4 f23c 5a05 723d
00000370: bf03 b63c 492e 20bd 1c7b a13d f70c 0a3d
00000380: d78d 4cbd 427a 383c b4da f5bb 3f96 5ebd
00000390: 9c8e 903d b924 53bc 9416 36bd 063e 033d
000003a0: 76cd 3a3d 5d74 07bd 2375 3b3d 5c61 2bbd
000003b0: 2765 cf3c 1ce4 c8ba 17ed 643d ccc2 ccba
000003c0: c588 9e3c f8f4 523d 526d 0e3b 7608 b13c
000003d0: 80ee 963d 5b13 073d 891d 173d 1047 be3d
000003e0: 894d 8a3d 35f0 9d3d 0ca8 d03d 27fc 0b3d
000003f0: 0c49 21bd 1116 d03b 28cf 293d 247b 1a3d

lds.3.bias f4 [48]
0.059147105 0.0007690966 0.057347074 0.02497041 0.03500985 -0.0355607 0.030473216 -0.036443
-0.0276249 -0.046380956 -0.035667654 0.034446582 0.050697733 -0.025078753 0.0043481854 0.019595299
-0.05377002 0.008476097 0.019671468 0.05526923 -0.0693658 0.022007234 0.019212402 -0.035140894
-0.02843607 -0.0032000942 0.019412847 -0.0047639757 -0.009834279 -0.047206663 0.0092419535 -0.011927259
-0.0032356349 0.021231346 -0.018347025 0.047089543 -0.0051246067 0.033839993 -0.00066007633 0.019504648
0.037546325 -0.013481952 0.050229385 -0.0012143976 0.015663316 -0.06288997 -0.028362408 0.020582197
00000000: 3c44 723d 339d 493a c4e4 6a3d bf8e cc3c
00000010: 7d66 0f3d 19a8 11bd f7a2 f93c 4145 15bd
00000020: 9d4d e2bc f5f9 3dbd 3f18 12bd dc17 0d3d
00000030: 6da8 4f3d f571 cdbc 397b 8e3b 5286 a03c
00000040: f43d 5cbd 54df 0a3c 0f26 a13c fd61 623d
00000050: a80f 8ebd 8448 b43c 5463 9d3c e6ef 0fbd
00000060: c3f2 e8bc acb8 51bb b107 9f3c 201b 9cbb
00000070: f51f 21bc c65b 41bd 906b 173c 8d6a 43bc
00000080: f20c 54bb 5ced ad3c 804c 96bc f7e0 403d
00000090: 51ec a7bb ce9b 0a3d f908 2dba 36c8 9f3c
000000a0: 2dca 193d 68e3 5cbc 54bd 4d3d 6c2c 9fba
000000b0: 5b50 803c 75cc 80bd 4858 e8bc ff9b a83c

lds.4.weight f4 [48]
0.9654993 0.8896557 1.0107583 1.0486025 0.9878027 1.0315806 0.9020591 1.0217918
1.04905 1.0316471 1.0242789 1.0081362 1.009086 1.0479953 0.9969476 1.000808
0.99861395 1.018194 1.1615963 0.9614501 1.0282146 1.0229414 1.03508 1.0191275
0.98175514 1.0175651 0.97261345 0.9704736 0.9713838 1.0297644 1.004285 0.9633337
0.9676314 1.0153515 0.9800891 0.9903565 0.9586425 1.0114621 1.0054479 0.965331
1.0087948 0.99959266 0.99369544 0.9959713 1.0431526 0.9408229 1.0283087 0.9277326
00000000: f62a 773f 7ac0 633f 8760 813f 9b38 863f
00000010: a3e0 7c3f d50a 843f 58ed 663f 13ca 823f
00000020: 4547 863f 030d 843f 921b 833f 9b0a 813f
00000030: bb29 813f b624 863f f537 7f3f 7a1a 803f
00000040: 2aa5 7f3f 2e54 823f 30af 943f 9821 763f
00000050: 899c 833f beef 823f 807d 843f c572 823f
00000060: 4e54 7b3f 933f 823f 32fd 783f f570 783f
00000070: 9cac 783f 52cf 833f 698c 803f 0a9d 763f
00000080: b1b6 773f 0af7 813f 1fe7 7a3f 0188 7d3f
00000090: 9869 753f 9777 813f 84b2 803f ef1f 773f
000000a0: 3020 813f 4ee5 7f3f d362 7e3f faf7 7e3f
000000b0: 0686 853f c5d9 703f 9f9f 833f e27f 6d3f

lds.4.bias f4 [48]
-0.11112892 -0.09747021 0.013671994 0.00614991 -0.053731684 -0.07395004 -0.0788795 0.015991155
-0.021248324 -0.042228095 -0.07360981 0.005594726 -1.18225125e-05 0.00095793296 -0.07350033 -0.08569961
-0.05780266 -0.024993312 -0.132052 -0.04370034 -0.07326696 -0.021029826 -0.0061548487 -0.10259446
-0.03355299 -0.060330186 -0.10067906 -0.03778699 -0.13472436 -0.019641744 0.028791467 -0.041759007
-0.08926641 -0.07135249 -0.0023945833 -0.13217992 -0.029014112 -0.011890729 -0.110827245 -0.11478835
-0.09570886 -0.11110879 -0.049318925 -0.081451975 -0.030244928 -0.11057947 -0.038521312 -0.16905305
00000000: 8f97 e3bd 769e c7bd 8000 603c 2f85 c93b
00000010: c115 5cbd 1e73 97bd 938b a1bd e2ff 823c
00000020: f710 aebc 5ef7 2cbd bdc0 96bd f753 b73b
00000030: 4e59 46b7 cb1d 7b3a 5787 96bd 4783 afbd
00000040: 7bc2 6cbd c6be ccbc a438 07be 21ff 32bd
00000050: fd0c 96bd be46 acbc 9dae c9bb 0b1d d2bd
00000060: dc6e 09bd c91c 77bd d330 cebd 88c6 1abd
00000070: 2ff5 09be b9e7 a0bc 15dc eb3c 7e0b 2bbd
00000080: 4fd1 b6bd 4121 92bd 71ee 1cbb 2c5a 07be
00000090: 01af edbc 55d1 42bc 65f9 e2bd 2816 ebbd
000000a0: 0203 c4bd 018d e3bd a402 4abd 4bd0 a6bd
000000b0: 36c4 f7bc 7d77 e2bd 86c8 1dbd 3e1c 2dbe

lds.4.running_mean f4 [48]
0.65606767 -0.3114664 0.9795113 0.15653911 -0.61367637 -1.5713085 -0.49001977 -0.63285446
-1.0383319 -0.11153955 -0.7194176 0.7812344 -1.2544636 -0.93290406 -1.371364 -1.040262
-1.6724998 -0.8669943 0.11902226 1.3606052 -1.1841371 -1.2965839 1.2089683 -1.9022737
-0.406167 -1.2538067 1.9900048 -0.28193516 1.1853495 -0.6039387 -0.42863974 -0.6839354
1.1305836 -0.92442644 0.15756643 1.5312663 -0.38768542 1.0400872 1.0906599 -0.5540189
-1.2896165 1.4981917 -2.2138515 1.6479142 -0.6049468 0.4425276 -1.2387537 2.0188131
00000000: 0df4 273f 8678 9fbe 41c1 7a3f ca4b 203e
00000010: e519 1dbf a320 c9bf dfe3 fabe c002 22bf
00000020: 0fe8 84bf d96e e4bd c02b 38bf fafe 473f
00000030: 4392 a0bf cdd2 6ebf db88 afbf 4e27 85bf
00000040: 7914 d6bf 57f3 5dbf f1c1 f33d 5028 ae3f
00000050: ce91 97bf 76f6 a5bf 79bf 9a3f b47d f3bf
00000060: 1ff5 cfbe bd7c a0bf 7ab8 fe3f ce59 90be
00000070: 88b9 973f ba9b 1abf ab76 dbbe 6416 2fbf
00000080: f7b6 903f 36a7 6cbf 1859 213e 8900 c43f
00000090: b47e c6be 9421 853f be9a 8b3f 2fd4 0dbf
000000a0: 2712 a5bf bfc4 bf3f beaf 0dc0 daee d23f
000000b0: cbdd 1abf fa92 e23e 7b8f 9ebf 3c34 0140

lds.4.running_var f4 [48]
0.8364955 0.68188924 1.4022719 0.52242905 0.74910676 1.2354695 1.2711264 1.0279039
1.5888695 0.25279456 0.3622696 0.70630485 1.5847552 0.5476897 0.6547719 1.1101321
0.7836522 1.3177085 0.28231734 3.4226992 2.7174718 1.4424514 1.1065406 0.8777182
0.9861296 1.0674118 0.769168 1.371324 0.71116316 1.3816915 3.1926148 0.87570405
0.47676778 0.91686594 0.72117877 0.7552543 1.3256176 0.53243005 0.9266207 0.61950994
0.61056644 0.86445844 5.6143084 1.2028675 0.5516758 0.68011254 1.3773485 1.0047263
00000000: 9224 563f 4b90 2e3f a57d b33f e9bd 053f
00000010: 76c5 3f3f dd23 9e3f 45b4 a23f 5b92 833f
00000020: 1360 cb3f 4a6e 813e 677b b93e 65d0 343f
00000030: 42d9 ca3f 6435 0c3f 229f 273f cf18 8e3f
00000040: 6e9d 483f acaa a83f e68b 903e 810d 5b40
00000050: 0feb 2d40 3fa2 b83f 1fa3 8d3f 24b2 603f
00000060: fd72 7c3f f3a0 883f 32e8 443f 8b87 af3f
00000070: ca0e 363f 44db b03f cd53 4c40 242e 603f
00000080: e81a f43e bab7 6a3f 2c9f 383f 5958 413f
00000090: d6ad a93f 564d 083f 0437 6d3f 3498 1e3f
000000a0: 154e 1c3f 264d 5d3f 6aa8 b340 90f7 993f
000000b0: a03a 0d3f db1b 2e3f f54c b03f df9a 803f

global_feature.0.weight f4 [64, 48, 3, 3]
-0.04138993 0.008282778 0.011142506 -0.005616165 -0.011724446 0.025964988 -0.059531514 -0.052805252
-0.048904102 0.012143999 0.016579272 0.0023574466 0.03440688 0.057598364 -0.006322534 0.041763194
0.00566206 -0.06098857 -0.051142458 -0.033419672 -0.089377396 -0.016613439 -0.04159744 -0.040214706
-0.004508371 0.0011840353 0.005975644 0.02922596 0.004539015 0.0014866577 0.04443911 0.04847177
0.03375943 0.021092875 0.028940847 0.05417309 0.01567319 -0.004138432 0.011319457 0.022733016
-0.0250065 0.015909404 -0.062457692 0.008918424 0.011754691 -0.02817306 -0.069695026 -0.022191672
-0.073397174 -0.037199315 -0.05279197 -0.047550704 -0.069995835 -0.069572374 0.039857917 -0.010780363
-0.0021309291 0.028345594 0.023976719 -0.040841803 0.012107923 0.0047940174 0.049791142 -0.018859856
-0.0053548114 -0.018808996 -0.014377443 -0.017422501 0.034885548 0.0033888624 -0.008816521 -0.0574017
0.02520308 0.037429467 0.058580775 -0.0023471038 0.023596972 0.076407515 0.07426955 0.015243758
0.050806023 -0.03927296 -0.035559695 -0.05964747 -0.049808033 -0.02098588 -0.0047547244 -0.05538097
0.011456523 -0.08343623 -0.0022163594 -0.04564328 -0.043664422 0.021156192 -0.03866648 -0.01205885
0.029353213 -0.006062296 -0.029847745 -0.061979815 -0.058552787 -0.03185448 0.0052017947 -0.05115554
-0.020560533 -0.006800661 -0.024997002 -0.05741109 -0.025356876 -0.005815568 -0.013069741 0.03879245
0.015954431 -0.0012319689 -0.05509199 0.025473759 0.015484306 0.06193933 -0.006618278 -0.028483693
0.004562312 0.058208995 -0.026334831 -0.056133866 0.01231801 -0.012779645 0.016927896 0.0041354285
0.038211763 0.027660092 -0.011402304 -0.02591683 -0.06470327 0.0016479706 0.014968574 -0.026749957
-0.029426543 0.028641216 -0.021311363 -0.048290566 0.044392306 0.036393426 0.0014034758 0.0731222
0.031041708 -0.03761378 -0.0023792593 -0.001570474 -0.026020717 0.014058954 -0.07499639 -0.025913054
-0.0057782303 0.045935925 0.022181273 -0.0025152126 -0.010143372 -0.03919999 0.04792713 0.03670671
-0.0025969627 0.014553927 -0.021354996 -0.021559067 -0.108791426 0.0028248755 -0.020451108 -0.050332114
-0.12201439 -0.01664255 -0.10542644 0.0047493516 0.010358352 -0.035709146 0.031201305 -0.03397551
-0.036735382 -0.05264774 -0.016107507 -0.022199422 -0.09091318 -0.039656073 -0.078843184 -0.075777814
-0.062108133 -0.048305746 0.0063130544 -0.04288172 0.0044592256 -0.014318609 0.050850008 -0.020128904
0.033582103 0.041304193 0.023557289 0.0069011464 -0.042184275 0.012242881 -0.019253958 0.039302338
-0.058098167 -0.030582039 -0.0155863855 0.005873143 0.03633537 -0.033498272 -0.041085847 -0.004024809
0.0013931199 -0.014274373 -0.05534967 -0.027217412 -0.02617313 0.009040543 -0.027221158 0.043270323
-0.012672843 0.011855833 0.0120521495 -0.03101727 -0.011723974 -0.021687021 -0.028292239 0.021541286
0.018594349 0.10254616 0.0075176526 0.06994175 0.010456995 -0.027147796 0.03668986 -0.0043407613
0.048596963 0.0042796517 0.018133031 -0.004723393 -0.019546634 -0.015208752 -0.02148073 0.05185016
0.032409444 0.027185356 0.0034174996 0.008974519 0.03460001 0.05755545 -0.024390798 0.061799753
-0.0012795549 -0.022611177 -0.029148564 0.050080415 0.06258058 -0.0044003883 -0.0040752697 0.022476956
00000000: 7d88 29bd 7db4 073c 0f8f 363c cf07 b8bb
00000010: e417 40bc 87b4 d43c 51d7 73bd 524a 58bd
00000020: ab4f 48bd a0f7 463c 41d1 873c 647f 1a3b
00000030: 3bee 0c3d 43ec 6b3d 422d cfbb e20f 2b3d
00000040: cd88 b93b 27cf 79bd c17a 51bd 11e3 08bd
00000050: 7f0b b7bd e818 88bc 1462 2abd 2db8 24bd
00000060: f5ba 93bb a231 9b3a 56cf c33b 486b ef3c
00000070: 04bc 943b f4db c23a c905 363d 568a 463d
00000080: 5447 0a3d f7ca ac3c 5b15 ed3c 9ae4 5d3d
00000090: 1065 803c af9b 87bb 3e75 393c 973a ba3c
000000a0: 6eda ccbc 7054 823c a3d3 7fbd 951e 123c
000000b0: bf96 403c 30cb e6bc 44bc 8ebd 4fcb b5bc
000000c0: 4251 96bd 4f5e 18bd 653c 58bd 87c4 42bd
000000d0: fa59 8fbd f67b 8ebd 0e42 233d 1fa0 30bc
000000e0: 0fa7 0bbb 0535 e83c d36a c43c bc49 27bd
000000f0: 4f60 463c 2217 9d3b ccf1 4b3d fc7f 9abc
00000100: 6a77 afbb 5315 9abc 5e8f 6bbc a2b9 8ebc
00000110: 26e4 0e3d ad17 5e3b 2b73 10bc 0c1e 6bbd
00000120: b176 ce3c a44f 193d 65f2 6f3d ded1 19bb
00000130: 704e c13c 8b7b 9c3d a21a 983d f5c0 793c
00000140: fa19 503d afdc 20bd 0ba7 11bd e850 74bd
00000150: 8203 4cbd 95ea abbc 85cd 9bbb 28d7 62bd
00000160: 24b4 3b3c 9de0 aabd 5740 11bb 73f4 3abd
00000170: 77d9 32bd c04f ad3c be60 1ebd 7c92 45bc
00000180: 2676 f03c 3aa6 c6bb 4283 f4bc 8cde 7dbd
00000190: 0cd5 6fbd d879 02bd d173 aa3b 7988 51bd
000001a0: 906e a8bc 14d8 debb 83c6 ccbc e427 6bbd
000001b0: 39b9 cfbc 8590 bebb 7822 56bc d5e4 1e3d
000001c0: deb2 823c 047a a1ba 23a8 61bd 58ae d03c
000001d0: e3b1 7d3c 18b4 7d3d 24de d8bb a256 e9bc
000001e0: 727f 953b 8e6c 6e3d 25bc d7bc a0ec 65bd
000001f0: 7bd1 493c b761 51bc 5fac 8a3c 7d82 873b
00000200: f083 1c3d 6b97 e23c bbd0 3abc 884f d4bc
00000210: 2683 84bd b800 d83a c03e 753c ba22 dbbc
00000220: ef0f f1bc fca0 ea3c 2b95 aebc 54cc 45bd
00000230: b5d4 353d 4611 153d d5f4 b73a 18c1 953d
00000240: 2e4b fe3c e810 1abd 59ed 1bbb 5dd8 cdba
00000250: 6629 d5bc 8757 663c b597 99bd 9d47 d4bc
00000260: 4f57 bdbb 4f27 3c3d 80b5 b53c 44d6 24bb
00000270: 6330 26bc 2b90 20bd 3d4f 443d c659 163d
00000280: ce31 2abb 9873 6e3c acf0 aebc a49c b0bc
00000290: 0ace debd 8c21 393b 1589 a7bc 0c29 4ebd
000002a0: aee2 f9bd f555 88bc d1e9 d7bd 73a0 9b3b
000002b0: 14b6 293c c143 12bd e199 ff3c e829 0bbd
000002c0: d777 16bd 28a5 57bd e4f3 83bc 90db b5bc
000002d0: b030 babd 686e 22bd 8978 a1bd 6631 9bbd
000002e0: 1965 7ebd 3fdc 45bd bddd ce3b bea4 2fbd
000002f0: b21e 923b 9998 6abc 1948 503d 5fe5 a4bc
00000300: 638d 093d 962e 293d 37fb c03c 0323 e23b
00000310: 6bc9 2cbd 5d96 483c 7aba 9dbc 7dfb 203d
00000320: 58f8 6dbd 2f87 fabc 0a5e 7fbc 7f73 c03b
00000330: 66d4 143d 7c35 09bd a249 28bd 8ce2 83bb
00000340: 5999 b63a 0fdf 69bc 56b6 62bd 0df7 debc
00000350: 0869 d6bc c91e 143c e8fe debc 393c 313d
00000360: c2a1 4fbc f83e 423c 6176 453c ee17 febc
00000370: e915 40bc fba8 b1bc 20c5 e7bc 5a77 b03c
00000380: 2d53 983c b903 d23d a456 f63b 9f3d 8f3d
00000390: d153 2b3c 0e65 debc 1b48 163d f23c 8ebb
000003a0: 9c0d 473d 523c 8c3b b98b 943c b1c6 9abb
000003b0: 4320 a0bc 212e 79bc 5bf8 afbc d560 543d
000003c0: c4bf 043d d3b3 de3c 21f8 5f3b dc09 133c
000003d0: bdb8 0d3d 43bf 6b3d 36cf c7bc bd21 7d3d
000003e0: bdb6 a7ba 133b b9bc f8c8 eebc 1f21 4d3d
000003f0: 3f2a 803d 2231 90bb d789 85bb 9821 b83c

global_feature.0.bias f4 [64]
0.0054639094 0.048955318 0.0062815724 0.013410935 -0.015430467 0.029929671 0.036771003 -0.026038535
0.036821418 -0.027980106 -0.03275846 0.0055260593 0.017716464 -0.01010896 0.040991064 0.0075725117
0.00046668196 -0.008908327 0.04297787 0.006874384 0.047891814 0.008417248 0.009342562 0.050675668
-0.03409335 0.036888383 0.048330247 0.006196112 0.041163698 0.030828977 -0.010641756 0.028994968
0.046091843 -0.00016214553 -0.028612701 0.010059601 -0.0061355825 0.04272778 0.046268154 0.0038489169
-0.047694374 -0.03417949 0.045564596 -0.029851329 0.038533334 -0.015847662 -0.002143481 -0.009724732
-0.004001064 -0.02230349 0.03535169 -0.034379996 -0.04385027 -0.041469082 0.031817157 0.007435469
-0.023029877 -0.041121516 -0.0375806 -0.02764477 0.03972353 0.023940906 -0.0052942606 0.050666217
00000000: 980a b33b 5f85 483d a6d5 cd3b 8ab9 5b3c
00000010: 12d0 7cbc 122f f53c 319d 163d c44e d5bc
00000020: 0ed2 163d 8936 e5bc bc2d 06bd f213 b53b
00000030: 1e22 913c 0da0 25bc 3fe6 273d d522 f83b
00000040: feac f439 3bf4 11bc 9009 303d 8342 e13b
00000050: 352a 443d 7fe8 093c 8c11 193c 4a91 4f3d
00000060: 78a5 0bbd 4618 173d f0f5 453d c108 cb3b
00000070: 449b 283d 0d8d fc3c c25a 2ebc db86 ed3c
00000080: cdca 3c3d 9c05 2ab9 2f65 eabc 06d1 243c
00000090: ff0c c9bb 5303 2f3d ad83 3d3d 1c3e 7c3b
000000a0: 2d5b 43bd cbff 0bbd f1a1 3a3d c68a f4bc
000000b0: 21d5 1d3d f5d2 81bc a579 0cbb 7b54 1fbc
000000c0: 5c1b 83bb cfb5 b6bc efcc 103d 0ad2 0cbd
000000d0: 579c 33bd 7cdb 29bd b552 023d 3ca5 f33b
000000e0: 27a9 bcbc 096f 28bd 1dee 19bd 4977 e2bc
000000f0: 24b5 223d b81f c43c 7a7b adbb 6187 4f3d

global_feature.1.weight f4 [64]
1.0193866 1.0634516 1.0089602 1.2227738 1.0950488 1.0247487 1.1226324 1.3439126
1.0058312 0.99874187 1.2908391 1.090622 1.1162634 1.0183266 1.147922 0.9887177
1.1690217 0.99480224 1.1917934 1.1060984 1.2931927 1.2230611 0.977902 1.1233864
1.0061404 1.0976719 1.2676371 1.3676753 1.0932615 0.96945584 1.005278 1.1066227
1.1862618 1.1622485 1.0996381 1.18244 1.276135 0.9885134 1.0026051 1.0173787
0.9803453 1.1980352 1.1174937 1.0299547 1.1170868 1.1494952 0.98219633 0.998308
1.0320265 1.1421584 1.013073 1.1707803 1.0051692 0.98900974 1.2234905 1.104856
1.3476025 0.9818154 0.9804895 1.2481928 1.0106698 1.1155465 1.0066111 1.1446311
00000000: 437b 823f 2f1f 883f 9c25 813f da83 9c3f
00000010: 8f2a 8c3f f72a 833f 6bb2 8f3f 5405 ac3f
00000020: 14bf 803f 8cad 7f3f 373a a53f 8099 8b3f
00000030: b8e1 8e3f 8758 823f 1cef 923f 9a1c 7d3f
00000040: 81a2 953f 5cab 7e3f b08c 983f a294 8d3f
00000050: 5787 a53f 448d 9c3f c957 7a3f 20cb 8f3f
00000060: 35c9 803f 8380 8c3f ef41 a23f fc0f af3f
00000070: feef 8b3f 422e 783f f3ac 803f d0a5 8d3f
00000080: 6dd7 973f 8fc4 943f f1c0 8c3f 325a 973f
00000090: 6458 a33f 370f 7d3f 5d55 803f 7739 823f
000000a0: e9f7 7a3f 3859 993f 090a 8f3f 8ed5 833f
000000b0: b3fc 8e3f a922 933f 3871 7b3f 1d91 7f3f
000000c0: 7219 843f 3f32 923f 60ac 813f 21dc 953f
000000d0: 62a9 803f be2f 7d3f 569b 9c3f ec6b 8d3f
000000e0: 3d7e ac3f 4158 7b3f 5c01 7b3f c8c4 9f3f
000000f0: a15d 813f 3aca 8e3f a2d8 803f 4683 923f

global_feature.1.bias f4 [64]
0.0049094968 -0.03877929 0.005119752 0.085435994 0.01881755 -0.022180248 0.06919664 0.18480204
-0.0047595487 0.009843196 0.123485185 0.019887235 0.077271946 -0.025441386 0.03628867 0.0073376494
0.049157143 -0.004857583 0.0977105 0.01589104 0.11311758 0.08350757 -0.031382613 0.058660693
-0.0010012597 -0.0018117443 0.06750214 0.09787334 0.04107047 -0.01709154 0.006192555 0.015488484
0.07886913 0.06726916 0.03670188 0.030261364 0.11238198 -0.016657844 -0.0017156487 -0.0063524675
-0.012447124 0.0902747 0.04510545 0.015524742 -0.011521401 0.07899142 -0.014105759 -0.0007329277
0.011397678 0.01733549 -0.011434995 0.1244488 -0.007166561 -0.016955579 0.13983685 -0.038800143
0.1122979 0.0075643375 -0.052249365 0.12316225 0.00808826 0.035943683 0.010181564 0.09898742
00000000: d8df a03b 08d7 1ebd 98c3 a73b 11f9 ae3d
00000010: 4327 9a3c 5ab3 b5bc f8b6 8d3d bf3c 3d3e
00000020: fdf5 9bbb 5b45 213c cde5 fc3d 8eea a23c
00000030: c140 9e3d 746a d0bc 6ea3 143d aa70 f03b
00000040: 0059 493d 5c2c 9fbb 711c c83d ed2d 823c
00000050: 31aa e73d 0406 ab3d 0e8b 00bd 3246 703d
00000060: b33c 83ba 0d78 edba 903e 8a3d d171 c83d
00000070: 8239 283d 8f03 8cbc ebea ca3b 69c3 7d3c
00000080: 2386 a13d 6ac4 893d b654 163d aee6 f73c
00000090: 8628 e63d 0876 88bc 9edf e0ba 5c28 d0bb
000000a0: 06ef 4bbc f1e1 b83d 7ec0 383d 7d5b 7e3c
000000b0: 42c4 3cbc 41c6 a13d d71b 67bc f221 40ba
000000c0: 54bd 3a3c 2803 8e3c d859 3bbc 03df fe3d
000000d0: 79d5 eabb 6de6 8abc 6431 0f3e e6ec 1ebd
000000e0: 71fc e53d 43de f73b 6e03 56bd 7d3c fc3d
000000f0: 9f84 043c af39 133d 93d0 263c ebb9 ca3d

global_feature.1.running_mean f4 [64]
-0.51744014 1.5428519 0.24663877 0.23329966 -1.4450635 -0.23985654 -0.20180517 -1.2769064
-0.7766443 -0.43152547 -0.87329644 1.1038193 -1.646342 -0.7392733 0.07223564 -0.8785424
-0.588274 -0.4221058 -0.8210142 0.56491524 0.3899238 -0.33697265 -0.01581627 -0.9677326
-0.8401284 0.79082143 0.31609458 -0.60826266 0.31440815 -0.9884778 -0.6912021 -2.2906127
-1.1768565 -0.10537521 -0.7707608 -0.20187633 -0.8201837 0.36224085 -0.58763343 -0.1127845
0.2768798 0.4489477 0.63522875 -0.040405408 0.49939182 0.9919114 -0.61797947 -0.38021713
-0.13144095 1.5104434 0.1410942 -0.29810914 -0.8466089 -0.584741 -1.5375559 1.3057402
-0.7981445 -0.8146429 0.6515086 0.54368585 -0.41699064 -1.2324269 -0.030549165 -0.66373026
00000000: f576 04bf 2c7c c53f e08e 7c3e 1be6 6e3e
00000010: d7f7 b8bf f49c 75be 04a6 4ebe ab71 a3bf
00000020: 29d2 46bf e8f0 dcbe 5b90 5fbf f349 8d3f
00000030: 56bb d2bf 0441 3dbf 47f0 933d 28e8 60bf
00000040: 2099 16bf 401e d8be fd2d 52bf 499e 103f
00000050: 18a4 c73e ae87 acbe 1f91 81bc 53bd 77bf
00000060: a812 57bf 4673 4a3f 26d7 a13e 1ab7 1bbf
00000070: 1bfa a03e e20c 7dbf 9ff2 30bf 6699 12c0
00000080: 3ca3 96bf f5ce d7bd 9450 45bf abb8 4ebe
00000090: 8ff7 51bf a277 b93e 256f 16bf 8ffb e6bd
000000a0: 30c3 8d3e 79dc e53e 5a9e 223f 2480 25bd
000000b0: 49b0 ff3e e8ed 7d3f e733 1ebf d2ab c2be
000000c0: 7598 06be 3656 c13f ff7a 103e c3a1 98be
000000d0: 5cbb 58bf 96b1 15bf a2ce c4bf 7f22 a73f
000000e0: 3353 4cbf 708c 50bf 45c9 263f ff2e 0b3f
000000f0: cc7f d5be 2ac0 9dbf 3e42 fabc 3aea 29bf

global_feature.1.running_var f4 [64]
0.8756322 2.3489065 0.88314104 0.70468146 0.45585665 1.1761513 0.93933064 0.87867534
0.7902192 1.1109108 1.1381166 1.0208656 0.5965206 0.96802247 1.1548601 1.4117953
1.0943952 1.4522604 0.53375477 0.936714 1.4070721 0.33823496 0.8437894 0.72714883
0.7500357 1.7571548 0.5755011 0.7371806 1.4624157 1.0695266 0.88902324 1.11722
0.41988245 0.99191797 1.0449206 0.36207372 1.1172075 1.088363 0.83136857 0.52583027
1.0292729 1.3604335 0.9848977 0.68161035 1.1129719 0.90582085 0.9849113 1.1253667
1.3299851 2.4553137 0.43246037 2.3461862 0.8766028 0.67085904 0.62813693 2.383188
1.4505651 0.93140614 1.1776984 3.081445 1.5389104 0.5307694 0.97296405 0.54387605
00000000: 6f29 603f 7c54 1640 8815 623f 0166 343f
00000010: 0b66 e93e 208c 963f f977 703f def0 603f
00000020: ce4b 4a3f 5332 8e3f cead 913f b9ab 823f
00000030: 93b5 183f 52d0 773f 75d2 933f b5b5 b43f
00000040: 2415 8c3f abe3 b93f 27a4 083f 7dcc 6f3f
00000050: f01a b43f 222d ad3e 9502 583f 6d26 3a3f
00000060: 5702 403f 73ea e03f 0a54 133f deb7 3c3f
00000070: 7030 bb3f 3fe6 883f 0797 633f 1101 8f3f
00000080: d5fa d63e 56ee 7d3f f5bf 853f ba61 b93e
00000090: a800 8f3f 7b4f 8b3f 92d4 543f d09c 063f
000000a0: 37bf 833f af22 ae3f 4122 7c3f 047e 2e3f
000000b0: dd75 8e3f e0e3 673f 2623 7c3f 040c 903f
000000c0: f43c aa3f dc23 1d40 726b dd3e ea27 1640
000000d0: 0b69 603f 6bbd 2b3f 95cd 203f 2786 1840
000000e0: 1eac b93f a270 6e3f d2be 963f 6536 4540
000000f0: 04fb c43f 81e0 073f 2c14 793f 763b 0b3f

classifier.0.weight f4 [2, 112, 1, 1]
-0.03683062 0.069528535 -0.06423861 0.06718456 0.046452634 -0.11889428 0.11078896 0.17071015
-0.07044134 -0.039695892 0.17852077 0.117632136 0.090285204 -0.06583954 0.17541279 0.0058241524
0.1283745 0.004594735 0.20181969 0.16423488 0.09825968 0.10927885 0.075768024 0.1476668
-0.06733624 0.07450839 0.05650356 0.16183093 0.08381392 -0.011579354 -0.048018232 0.06780184
0.21915516 0.2030944 0.1024511 0.15753202 0.16131744 -0.07893589 -0.08667346 -0.04240922
-0.05715462 0.114206254 0.0408411 -0.12010258 0.11033794 0.17254777 -0.0008397324 -0.08126504
0.01545915 0.040686004 -0.08264576 0.17481646 -0.044713728 -0.014417431 0.11744953 0.040792514
0.20670852 0.03839449 -0.01587624 0.116810784 -0.033400875 0.12525564 -0.09654965 0.20296432
0.10935767 -0.05976172 0.10991037 0.08869494 0.017921446 -0.04855621 0.035372633 0.07847496
0.094171606 0.1223388 -0.053109854 0.020869745 0.12742986 0.062467627 -0.08888846 -0.07348025
-0.041905206 0.0709427 0.08420032 0.08624346 0.07371637 0.023288684 0.1395459 -0.06497321
0.09420473 -0.049014743 0.035021942 0.09931644 -0.08429306 0.056188047 0.07183262 0.09653773
0.09409045 -0.054801505 0.021969322 -0.014047463 0.010460439 0.117187545 0.073977225 -0.0049916455
-0.012051587 -0.08576672 -0.05505912 0.02696469 -0.023439651 0.061026197 0.10475182 0.016321316
0.09499995 -0.03223754 0.08635641 -0.1666464 -0.14837162 0.023268526 -0.10661015 -0.16040237
0.07886456 0.05718088 -0.09546029 -0.16001259 -0.09940346 0.062167548 -0.021669062 0.07699933
-0.0870961 0.08329225 -0.16783479 -0.14188643 -0.14752877 -0.20343848 0.05447311 -0.18347552
0.10343494 -0.07226099 -0.2217388 -0.16632523 -0.083441235 0.037360333 0.05714086 -0.14383169
-0.20765074 -0.16973858 -0.10103714 -0.21522738 -0.07306011 -0.014010532 0.03932552 0.054809578
0.057100087 -0.20006552 -0.123736076 0.11755279 -0.16605061 -0.16247348 0.054226134 0.070213675
0.12528387 -0.1205783 0.053396776 -0.14582448 0.0894335 0.05329516 -0.21990915 -0.108442776
-0.09375446 0.09497617 -0.052693523 -0.094771765 0.045473207 -0.15009205 0.09664905 -0.13091362
0.06785875 -0.02256667 0.008411727 -0.0834748 0.06958515 -0.08285591 0.007886276 -0.1270561
0.015266691 -0.12067185 0.039152715 -0.108012274 0.055130463 0.001751559 -0.034221806 -0.033087283
0.085042134 -0.046178333 -0.051636517 0.011342548 0.061079737 -0.055627283 -0.06773649 0.039094236
0.014466067 -0.07667545 -0.07620116 -0.09246599 -0.014516637 0.00797306 -0.084528625 0.038600452
0.020377288 0.037054192 -0.02910624 -0.019448116 0.037587266 -0.14864053 0.06686077 0.04946822
0.004981993 -0.09600366 -0.05584114 -0.060586963 -0.059451055 0.05878457 -0.021977317 0.08412052
00000000: b4db 16bd fa64 8e3d 888f 83bd 0f98 893d
00000010: 1e45 3e3d d87e f3bd 52e5 e23d a4ce 2e3e
00000020: 8d43 90bd 2998 22bd 26ce 363e 1ee9 f03d
00000030: 73e7 b83d e1d6 86bd 699f 333e 88d8 be3b
00000040: 9b74 033e 6e8f 963b d2a9 4e3e 302d 283e
00000050: 5f3c c93d 97cd df3d 442c 9b3d f735 173e
00000060: 95e7 89bd db97 983d 4770 673d 02b7 253e
00000070: a2a6 ab3d 55b7 3dbc c4ae 44bd b1db 8a3d
00000080: 366a 603e faf7 4f3e e2d1 d13d 1350 213e
00000090: 6630 253e 24a9 a1bd db81 b1bd 4ab5 2dbd
000000a0: f61a 6abd f8e4 e93d ff48 273d 57f8 f5bd
000000b0: dcf8 e13d 5db0 303e 7d21 5cba 496e a6bd
000000c0: 6048 7d3c 5ea6 263d 2e42 a9bd 1603 333e
000000d0: be25 37bd 1737 6cbc 6189 f03d 0d16 273d
000000e0: 66ab 533e 8a43 1d3d e30e 82bc 7e3a ef3d
000000f0: 5bcf 08bd 0443 003e d3bb c5bd e1d5 4f3e
00000100: eaf6 df3d b5c8 74bd b018 e13d b1a5 b53d
00000110: ffcf 923c e0e2 46bd e5e2 103d 7bb7 a03d
00000120: 0bdd c03d c48c fa3d b889 59bd 07f7 aa3c
00000130: f97c 023e 0ede 7f3d 270b b6bd d07c 96bd
00000140: cba4 2bbd 684a 913d 3871 ac3d 69a0 b03d
00000150: 9cf8 963d e9c7 be3c 1fe5 0e3e ad10 85bd
00000160: 69ee c03d afc3 48bd 2b73 0f3d 6b66 cb3d
00000170: d7a1 acbd 7025 663d fb1c 933d 93b5 c53d
00000180: 7eb2 c03d 8b77 60bd 02f9 b33c 5527 66bc
00000190: 4362 2b3c 0600 f03d 5f81 973d f590 a3bb
000001a0: 0574 45bc 76a6 afbd ac85 61bd 0ee5 dc3c
000001b0: 8304 c0bc 9bf6 793d 1f88 d63d 48b4 853c
000001c0: 558f c23d 830b 04bd a1db b03d 5ba5 2abe
000001d0: bbee 17be a39d be3c 6c56 dabd 8540 24be
000001e0: be83 a13d 8036 6a3d af80 c3bd 57da 23be
000001f0: 0b94 cbbd 66a3 7e3d 5183 b1bc d3b1 9d3d
00000200: 715f b2bd 2195 aa3d e2dc 2bbe ad4a 11be
00000210: c811 17be 2d52 50be 321f 5f3d 02e1 3bbe
00000220: b3d5 d33d 92fd 93bd 7f0f 63be 2951 2abe
00000230: 3de3 aabd 2607 193d 890c 6a3d 9d48 13be
00000240: 65a2 54be f3cf 2dbe 8fec cebd 9164 5cbe
00000250: 8aa0 95bd 6e8c 65bc cc13 213d 0280 603d
00000260: c8e1 693d fadd 4cbe 5769 fdbd 84bf f03d
00000270: 2c09 2abe 735f 26be 391c 5e3d 30cc 8f3d
00000280: 6a4a 003e c1f1 f6bd 94b6 5a3d 0353 15be
00000290: e928 b73d 074c 5a3d dd2f 61be 3f17 debd
000002a0: 5702 c0bd de82 c23d 2ad5 57bd b317 c2bd
000002b0: 1d42 3a3d bbb1 19be f0ef c53d 380e 06be
000002c0: 87f9 8a3d bddd b8bc 57d1 093c d6f4 aabd
000002d0: a982 8e3d 5cb0 a9bd 7035 013c ff1a 02be
000002e0: 2521 7a3c ce22 f7bd 995e 203d 8a35 ddbd
000002f0: 7bd0 613d 9194 e53a 2a2c 0cbd 8886 07bd
00000300: 922a ae3d 7e25 3dbd d080 53bd 18d6 393c
00000310: bf2e 7a3d 6fd9 63bd 6eb9 8abd 4721 203d
00000320: 1503 6d3c 0508 9dbd 5b0f 9cbd cf5e bdbd
00000330: 30d7 6dbc 70a1 023c 581d adbd 821b 1e3d
00000340: 45ee a63c 23c6 173d 3670 eebc a851 9fbc
00000350: 1bf5 193d 3935 18be 4dee 883d 309f 4a3d
00000360: fd3f a33b 919d c4bd aeb9 64bd 092a 78bd
00000370: f382 73bd 17c8 703d c609 b4bc 6147 ac3d

classifier.0.bias f4 [2]
-0.052843545 0.05916341
00000000: 7972 58bd 5555 723d
